Deep Learning/network6.pth (torch_old, 1343 bytes, 3 tensors)

fc1.weight f4 [10, 12]
0	0xbca9b0be	-0.02071416
1	0xbd09cd78	-0.033643216
2	0x3d9f3c74	0.077752024
3	0x3d8cf39c	0.06882402
4	0xbc50b944	-0.012739483
5	0x3d7fdbba	0.062465407
6	0xbe91cc94	-0.28476393
7	0xbeed0dc1	-0.46299556
8	0xbd7ec7e1	-0.062202338
9	0x3f18586e	0.59509933
10	0x3dc3fce8	0.095697224
11	0x3f306281	0.68900305
12	0xbe7bbbf4	-0.24583417
13	0x3e5a6838	0.21328819
14	0x3da3b0cc	0.07992706
15	0xbe6c5c9e	-0.23082206
16	0x3e468ec6	0.19390401
17	0xbe7e9fed	-0.24865694
18	0xbe127eac	-0.14306134
19	0xbe8a046f	-0.26956508
20	0xbe919c0a	-0.2843936
21	0xbb1ae780	-0.002363652
22	0x3d1daae0	0.038493037
23	0xbe19ca15	-0.15018494
24	0xbe0fc0f2	-0.14038447
25	0xbdef10b2	-0.11673106
26	0xbe2ad925	-0.16684397
27	0xbcfa1f94	-0.030532636
28	0xbdcd3cd4	-0.10021368
29	0xbc93557e	-0.017985102
30	0x3f42d900	0.76112366
31	0x3ed85cf2	0.42258412
32	0xbf182793	-0.59435385
33	0x3f0cab06	0.5494846
34	0xbe807f51	-0.25097135
35	0xbf686a8c	-0.9078758
36	0xbd704bc1	-0.058665995
37	0xbdb472b6	-0.08810942
38	0xbd9c326d	-0.076268055
39	0xbe89ac20	-0.26889133
40	0xbe97ce6e	-0.2964968
41	0xbdfb578b	-0.12272557
42	0xbe8cab64	-0.2747451
43	0x3d5299f8	0.051416367
44	0x3e38b478	0.18037593
45	0x3e295e39	0.1653985
46	0xbe3e2606	-0.18569192
47	0x3c57bdec	0.0131678395
48	0x3e1de6f5	0.15420134
49	0x3d9244d7	0.071420364
50	0x3e28ea6a	0.16495672
51	0x3e5c5141	0.21515371
52	0x3dc1f23c	0.09470031
53	0x3e0e126b	0.13874213
54	0xbd84cc8e	-0.06484328
55	0xbe2061c3	-0.15662293
56	0xbf889679	-1.0670921
57	0x3f675b57	0.9037375
58	0xbe4de2f3	-0.20106106
59	0xbcd5bdad	-0.026091421
60	0xbe89f351	-0.26943448
61	0x3cd28221	0.025696816
62	0xbc0b276e	-0.0084932875
63	0xbe2971de	-0.16547343
64	0xbe29d7d0	-0.16586232
65	0xbd4b44d6	-0.049626194
66	0xbe8562c4	-0.26051915
67	0xbcca25b5	-0.024676183
68	0x3e37505d	0.1790175
69	0xbe65dd90	-0.224478
70	0x3e0114bb	0.12605564
71	0xbdf97c1f	-0.12181877
72	0x3beb08b0	0.0071726665
73	0x3b292bdd	0.0025813498
74	0x3bcf73f1	0.00633096
75	0x36b88d80	5.5001e-06
76	0xbb96e201	-0.0046045785
77	0x3ba794fa	0.005114195
78	0xbff50882	-1.9143221
79	0xbfab1abe	-1.3367536
80	0xbf3b7c37	-0.7323641
81	0xbe17f469	-0.14839329
82	0x3ed75136	0.42054147
83	0x3f801958	1.0007734
84	0x3d098f18	0.03358373
85	0xbbd8dfff	-0.0066184993
86	0x3c20fe5c	0.009826269
87	0xbc022e33	-0.007945585
88	0x3d90eb95	0.07076184
89	0x3d4c5021	0.049881104
90	0xbdc9cb70	-0.09853256
91	0xbf82b0f3	-1.0210251
92	0x3f5e03f1	0.86724764
93	0xbd128c3d	-0.035778273
94	0xbdf20b6e	-0.11818586
95	0x3e655eb9	0.22399415
96	0x3e840f24	0.257928
97	0xbe84c52a	-0.25931674
98	0xbe8bb832	-0.27288967
99	0xbe5e41a9	-0.21704735
100	0x3e108d0e	0.14116308
101	0xbe8e6b8c	-0.27816427
102	0xbe10d8b3	-0.14145164
103	0xbe528922	-0.20560125
104	0x3d114de8	0.035474688
105	0xbbf96380	-0.0076107383
106	0xbd9a7554	-0.0754191
107	0xbe07d793	-0.13265829
108	0x3cc392ea	0.023873765
109	0xbe47165d	-0.19442125
110	0xbe07820e	-0.13233206
111	0xbe842847	-0.2581198
112	0xbd247e50	-0.040159523
113	0x3dc867ec	0.097854465
114	0xbd7f06bf	-0.062262293
115	0xbd50118c	-0.050797984
116	0x3dd6efb1	0.10494936
117	0xbd171eba	-0.036894538
118	0x3e1f2c11	0.15544154
119	0xbdce872f	-0.10084378

fc1.bias f4 [10]
0	0xbe2bf3c3	-0.16792206
1	0x3e846ebc	0.25865734
2	0x3c922172	0.017838214
3	0xbe8a627d	-0.27028266
4	0xbd8843cc	-0.06653556
5	0xbe3ac313	-0.18238477
6	0xbdeaedf4	-0.11471167
7	0xbba11b09	-0.004916553
8	0x3c3bada0	0.01145497
9	0xbe3e1842	-0.18563941

fc2.weight f4 [1, 10]
0	0x3db8a7d2	0.09016384
1	0x3e95a2b3	0.29225692
2	0x3d70ef6a	0.058822073
3	0x3e7d4de0	0.24736738
4	0xbd970963	-0.07374837
5	0x3c7d1bda	0.015448535
6	0x3fd0db7e	1.6316984
7	0xbd62843c	-0.05530189
8	0xbe3acaf2	-0.1824148
9	0x3be1cb06	0.0068906574
