Deep Learning/network7.pth (torch_old, 1391 bytes, 3 tensors)

fc1.weight f4 [10, 14]
000000 e5 b2 a2 be e6 6c a4 bd f5 77 c1 bd 3f 61 07 be
       -0.3177711 -0.08028583 -0.09446708 -0.1322069
000010 06 85 88 bd 3b db 8f 3d 5d d8 46 3e d7 5e 35 bf
       -0.06665997 0.07024237 0.19418474 -0.7084784
000020 c2 17 ce be 0f c9 2d be d9 14 1b be b9 94 7e 3d
       -0.402525 -0.16971229 -0.15144671 0.06215355
000030 be 63 61 3e 78 38 b8 3e 4a 9e 8e 3d bc e0 04 3e
       0.22010705 0.35980582 0.06963785 0.12976354
000040 ef 05 26 3e 78 33 1f 3e b7 3d ff 3d ab bb da 3d
       0.16213201 0.15546978 0.12462943 0.10680326
000050 5a 90 ce 3d d1 8e ca bd 95 bb e7 3c c0 39 3d 3e
       0.100861266 -0.09890521 0.028287688 0.18479061
000060 c3 0c 80 bd e1 5f 86 3d 4f af 05 3e 86 4e 97 3e
       -0.06252434 0.06561256 0.13055156 0.29552096
000070 cd 0d 1e bd 13 e6 a3 3c 5a 8e d4 3d 95 92 ae bb
       -0.03858738 0.020007169 0.10378714 -0.0053275325
000080 a2 38 04 3d ad 71 af 3d 63 91 39 3d 76 af c3 bd
       0.03228057 0.08566604 0.045304667 -0.09554951
000090 21 37 83 be 9f 3a 0b 3f d4 87 2e bf 1f 97 84 3d
       -0.25627998 0.54386324 -0.6817601 0.064741366
0000a0 2d 48 12 be 8f 07 e9 3d 9b 19 04 bc 0a c7 60 be
       -0.14285345 0.11378395 -0.008062745 -0.21950927
0000b0 5a 07 c8 3d 09 41 5a be 61 15 0d be 1b c0 41 3c
       0.09767027 -0.21313871 -0.13777687 0.011825587
0000c0 81 b4 15 be 50 3a 2c be 70 6b 51 bc 92 0d 45 3e
       -0.14619638 -0.1681912 -0.012781963 0.19243458
0000d0 e4 4a 39 3e 99 bc 52 be 7b 8a 42 be f7 89 bf 3c
       0.18094975 -0.20579757 -0.18998139 0.023381216
0000e0 57 e2 10 be b5 cc 82 be 11 b1 51 be bb 79 3a 3e
       -0.14148842 -0.25546804 -0.20477702 0.18210499
0000f0 62 f5 91 be f7 8a 73 be a3 43 a0 bd 5d 23 34 be
       -0.28507525 -0.2378348 -0.07825401 -0.17591615
000100 01 58 bd 3d 68 b4 c8 bc 68 a9 5a be df a3 1e 3e
       0.09245301 -0.024500087 -0.21353686 0.154922
000110 c4 b9 df bb 62 f3 0a bd 37 e1 14 be 00 a2 27 3d
       -0.006827565 -0.033923514 -0.14539038 0.04092598
000120 6f fd 28 be 62 6b dd bd 44 34 fa bd 38 cb c7 bd
       -0.16502927 -0.10811497 -0.12217 -0.09755558
000130 a2 7f 12 3e 68 d5 0f be 18 f5 97 3d da 2f 07 be
       0.143065 -0.14046252 0.07419795 -0.13201848
000140 60 64 5e bc 40 5c 3c be 70 ae 41 3e b6 c9 50 be
       -0.013573736 -0.18394566 0.18914199 -0.20389447
000150 cb 5e ad bd 8d f7 64 be ca 7a 11 3e 01 25 2e be
       -0.08465346 -0.22360058 0.14206997 -0.17006303
000160 39 41 2d 3e 66 f1 2b be 7c b4 24 3e df 42 9e be
       0.16919412 -0.16791305 0.16084474 -0.30910394
000170 eb 05 9d 3d 8a 6b ae bc 3f 44 5c bd 8f 43 5e be
       0.076671444 -0.021291513 -0.053776022 -0.21705459
000180 18 3a bf bd 43 08 a7 bd c0 53 53 3e a0 89 c3 bd
       -0.093372524 -0.08155873 0.20637417 -0.09547734
000190 ee 08 2c be 02 12 24 be 57 db 16 be 2c 68 0e 3e
       -0.16800281 -0.16022494 -0.14732109 0.13906926
0001a0 00 c5 73 3b 23 54 80 be e2 9f 04 be c0 58 c8 3b
       0.0037196279 -0.2506419 -0.12951615 0.0061140954
0001b0 31 06 42 be e8 61 a1 bd 60 4f ec 3d 4a 93 ad bd
       -0.18947674 -0.07880002 0.11538577 -0.08475359
0001c0 4a 72 8e 3d 28 36 19 be cd b0 82 be 0d db 31 3d
       0.06955393 -0.14962065 -0.25525513 0.043421794
0001d0 f4 39 a1 3d d0 d8 86 be 12 ec 10 be 38 c5 4c 3e
       0.07872382 -0.2633729 -0.14152554 0.19997108
0001e0 4b e0 9c bc 7e bc 58 3d 2e 9b 59 3d 02 c0 68 be
       -0.01914992 0.052914135 0.053126507 -0.22729495
0001f0 d4 e4 ab bd 84 7b 8b be 08 8d 73 be 68 47 02 be
       -0.08393255 -0.27242672 -0.23784268 -0.12722552
000200 d0 0b a1 3d 9a 22 04 be 92 d1 66 be c4 24 59 be
       0.07863581 -0.12903824 -0.22540882 -0.21205431
000210 7e 01 2c be fc ea 39 3e 44 4e b8 bd a2 24 55 3e
       -0.16797444 0.18156046 -0.08999303 0.20814756
000220 81 4b 56 be 3c 9b 52 be 32 65 bc bd 86 2c 36 be
       -0.2092724 -0.2056703 -0.09198989 -0.17790422

fc1.bias f4 [10]
000000 4f 46 2d bd 7a c6 e6 3d af 39 0f 3e 4a 39 d4 bd
       -0.04230338 0.11268325 0.13986848 -0.103624895
000010 c9 55 73 bc 60 73 06 bd d8 01 a2 3d 30 7a 8d 3d
       -0.014851996 -0.032824874 0.07910508 0.06908071
000020 52 99 13 be d0 9f 83 be
       -0.14413956 -0.25707865

fc2.weight f4 [1, 10]
000000 cd 22 73 3e fc 1c d1 3d cd 95 2c bd d4 7e 58 3e
       0.23743744 0.102106065 -0.04213505 0.21142131
000010 91 9a 2f 3a 0a 67 04 3e b0 30 31 be 82 52 9e be
       0.00066987524 0.12929931 -0.17303729 -0.30922323
000020 d8 e8 af bd a9 13 84 3e
       -0.08589333 0.2579625
